ml_model/model.pth (torch, 3526 bytes, 3 tensors)

embedding.weight f4 [26, 16]
0	0x3f4f0e9a	0.80881655
1	0x4033adf0	2.8074913
2	0x3fa35298	1.2759581
3	0x3ac1c0bd	0.0014782172
4	0xbe6030e2	-0.21893647
5	0x3f85bef6	1.0448902
6	0x3f76a880	0.9635086
7	0x3f9a34bf	1.2047347
8	0xbdd16d88	-0.102259696
9	0xbd7174a9	-0.058949146
10	0xbe16e633	-0.14736252
11	0x3e88f313	0.2674795
12	0xbfef0db6	-1.8676059
13	0x3d872984	0.06599715
14	0x3ea6ed76	0.32603043
15	0xbe461d6a	-0.19347158
16	0x3e8adbf8	0.27120948
17	0x3e9df47c	0.3085059
18	0x3fbdf414	1.4840112
19	0xbe4cf04d	-0.20013542
20	0x3f370c49	0.7150312
21	0x3ea57ef5	0.32323423
22	0xbf24b173	-0.64333266
23	0x3e3bcce6	0.18339881
24	0x3f8b5129	1.0884143
25	0x3f1d1b0f	0.61369413
26	0xbe947432	-0.289949
27	0x3f9606ff	1.1720885
28	0x3f04548c	0.5169151
29	0xbee3e17b	-0.44507965
30	0xbf9671ae	-1.1753442
31	0x3e38afa1	0.18035747
32	0xbfaa7c83	-1.3319248
33	0x3eb55a69	0.3542054
34	0xbe4b18f9	-0.19833745
35	0xbf48159b	-0.7815797
36	0xbf17e12c	-0.5932796
37	0xbf0fb0fe	-0.56129444
38	0xbfe15002	-1.7602541
39	0xbf435274	-0.7629769
40	0x3f24155e	0.64095104
41	0x3ff38230	1.9024105
42	0x3f06d36c	0.52666354
43	0xbe9fb31f	-0.31191346
44	0x3e80e744	0.25176442
45	0xbf5a2b07	-0.85221905
46	0xbf6d7f74	-0.92772603
47	0xc012938d	-2.2902558
48	0xbf0fcc40	-0.56171036
49	0x3e441cb4	0.19151574
50	0xbf06a9b6	-0.5260271
51	0x3eecfbe9	0.46285942
52	0x3f09e8a4	0.53870606
53	0x3e82d9fd	0.25556937
54	0xbf75c8df	-0.9600963
55	0xbf56cf03	-0.83909625
56	0xbf27a950	-0.65492725
57	0xbf2f78c0	-0.68543625
58	0x3f32e064	0.6987364
59	0x3d9895aa	0.07450421
60	0x3f095d65	0.53658134
61	0xbf4fea22	-0.81216633
62	0x3ee2276a	0.44170696
63	0xbf4e13d6	-0.8049902
64	0xbfd997b3	-1.699942
65	0xbeaabedf	-0.33348748
66	0xbf8611d0	-1.0474186
67	0x3fd107de	1.6330526
68	0x3f471457	0.7776541
69	0x3f12557b	0.5716168
70	0x3fe7f237	1.8120793
71	0xbea86980	-0.3289299
72	0x3fa49e2f	1.2860774
73	0x3ec526e5	0.38506237
74	0xbf1e1876	-0.61756074
75	0xbf362656	-0.71152246
76	0x3dd5f49e	0.10447048
77	0x3da182c8	0.07886273
78	0xbef7a8fe	-0.48371118
79	0xbfaa7c32	-1.3319151
80	0xbedcb672	-0.43107945
81	0xbe52aac9	-0.20572962
82	0xbe430a0d	-0.19046803
83	0x3f177fb2	0.5917922
84	0x3f08ca57	0.53433746
85	0xbdc99354	-0.09842554
86	0xbf8b554d	-1.0885407
87	0x3eb083fa	0.3447569
88	0xbfe7efb4	-1.8120027
89	0x3f11d47f	0.5696487
90	0xbf3634cb	-0.71174306
91	0x3f46b6e0	0.77622795
92	0xbf52b6e6	-0.8231033
93	0x3f4b5eaf	0.7944135
94	0x3ee339b0	0.4437995
95	0xbfae7da0	-1.3632088
96	0x3f6683d9	0.90044934
97	0x3fc91ff7	1.571288
98	0xbea59f07	-0.3234789
99	0xbee7af12	-0.45250756
100	0xbf846eee	-1.0346353
101	0xbffaac62	-1.9583857
102	0xbf09423f	-0.5361671
103	0xbee62929	-0.44953278
104	0xbffa9a6e	-1.9578378
105	0x3fb4e30c	1.4131789
106	0x3f33c1ea	0.70217764
107	0x3fa8f190	1.3198719
108	0x3f63776a	0.88854086
109	0xbe73ee1f	-0.23821305
110	0x4004220d	2.0645783
111	0xbff1785a	-1.8864853
112	0xbf28e865	-0.65979606
113	0x3e96d529	0.29459503
114	0x3f24eb08	0.6442113
115	0x3f9d5a5c	1.22932
116	0x3f424b9a	0.7589661
117	0xbf5546fe	-0.8331145
118	0x3ef13a98	0.47115016
119	0xbf36e6f1	-0.7144614
120	0xbf2c5260	-0.67313194
121	0x3f50e1f9	0.81594807
122	0xbf527f07	-0.8222508
123	0xbf175576	-0.5911478
124	0xbee987e4	-0.4561149
125	0x3db8518c	0.08999929
126	0xbefed6c0	-0.49773216
127	0x3d1d0290	0.038332522
128	0xbea3af02	-0.31969458
129	0x3e125bc9	0.14292826
130	0xbe7a0d54	-0.24419147
131	0xbe3744a7	-0.17897283
132	0xbf92345c	-1.1422229
133	0x3f12cb84	0.5734179
134	0xbeb2caa4	-0.34920228
135	0xbec10988	-0.37702584
136	0x3eb7ca88	0.35896707
137	0x3f3d2b08	0.73893785
138	0xbfb7ff8c	-1.4374862
139	0x3da33250	0.07968581
140	0x40059288	2.0870686
141	0xbe4a3230	-0.19745708
142	0xbf02cef0	-0.5109701
143	0x3ea27b2c	0.31734598
144	0x3f59b29f	0.8503818
145	0x3fb8f3ef	1.4449443
146	0x3f36f92a	0.71473944
147	0x4017c27e	2.3712459
148	0x3fad76d6	1.3551891
149	0x3c6380f0	0.013885722
150	0xbfa22436	-1.2667301
151	0xbe5dc097	-0.21655498
152	0x3fb318b2	1.3991911
153	0x3f9039bd	1.126762
154	0xbf03988f	-0.5140466
155	0xbffe0f92	-1.9848502
156	0xbfc89036	-1.566901
157	0x3fd967f9	1.6984855
158	0xbf6a78a3	-0.9159033
159	0xbef37009	-0.47546414
160	0xbf5831d9	-0.8445106
161	0x3eaee3e6	0.34158248
162	0x3f30803e	0.6894568
163	0x3f057a01	0.5213929
164	0x3fa69f82	1.3017428
165	0x3f3e950f	0.74446195
166	0xbdef6259	-0.1168868
167	0xbbb7310a	-0.0055905627
168	0x3fbbef83	1.4682468
169	0xbd4f9175	-0.050675828
170	0x3e9268e5	0.28595653
171	0xbe49a27f	-0.19690894
172	0x3f647c90	0.8925257
173	0x3dc1804a	0.09448297
174	0xbee0e731	-0.43926385
175	0x3f4eabb3	0.8073074
176	0xbef41d4e	-0.47678608
177	0x3e295302	0.16535571
178	0xbf1fee5f	-0.624731
179	0x3fb1a37d	1.3878018
180	0xbfa2e852	-1.2727149
181	0x3ea3a39c	0.31960762
182	0x3f35ba50	0.70987415
183	0x3f43331b	0.76249856
184	0x3e8bea78	0.27327323
185	0x3fac635e	1.3467824
186	0x3fbfb270	1.497633
187	0x3f72e5f7	0.9488215
188	0x3e8e4f42	0.27794844
189	0xbc2aa906	-0.010416275
190	0xbe9af16f	-0.30262324
191	0xbf2e26df	-0.6802806
192	0xbe2ebb33	-0.17063598
193	0x3e0f2109	0.13977446
194	0xbfb1b521	-1.3883401
195	0xbe252490	-0.16127229
196	0x3f5fd565	0.8743499
197	0xbd3c5582	-0.045979984
198	0xbfb041fc	-1.3770137
199	0x3f9de378	1.2335043
200	0xbdd746d4	-0.10511556
201	0x3f59d641	0.8509255
202	0x3fc69027	1.5512742
203	0x3e1fb2a4	0.1559549
204	0x3e86f8de	0.26361746
205	0xbfda2fd3	-1.7045845
206	0xbe954cbf	-0.29160115
207	0x3f4866c8	0.7828183
208	0x3e92913f	0.2862644
209	0xbf084fed	-0.5324696
210	0x3f5058b8	0.81385374
211	0x3fba349b	1.4547304
212	0xbf3e12f6	-0.7424768
213	0x3e4ccc2f	0.19999765
214	0xbeb0b287	-0.34511206
215	0x3f0d3049	0.551518
216	0x3cdd68ff	0.027027605
217	0xbfb33e51	-1.4003392
218	0xbfdf0127	-1.7422227
219	0xbfcec22f	-1.615301
220	0x3d8a6c1c	0.067589015
221	0x3fb0c4a9	1.3810016
222	0x3e81fdf2	0.25389057
223	0x3ef5e607	0.4802706
224	0xbfe3058b	-1.7736067
225	0x3f46c3c2	0.7764245
226	0xbe1ead70	-0.15495849
227	0x3f9bca60	1.2171135
228	0x3d565162	0.052323706
229	0xbfa20e82	-1.2660677
230	0x3d822eab	0.063565575
231	0xbe9d2d4a	-0.30698615
232	0x3f8c99e8	1.0984468
233	0x3ec131d5	0.3773333
234	0x3f94e4b3	1.1632293
235	0x3f12dd72	0.5736915
236	0xbec9f0ab	-0.39441428
237	0x3f999a4b	1.2000211
238	0x3f8d7aca	1.1053097
239	0x3fb53052	1.4155371
240	0xbee3e44f	-0.44510123
241	0xbf3c0a9f	-0.73453707
242	0xbfd979c3	-1.6990284
243	0x3fb965e3	1.4484218
244	0xbf7f4989	-0.9972158
245	0x3fdcf6b5	1.7262789
246	0xbf55e384	-0.83550286
247	0xbf313a08	-0.69229174
248	0x3f8c0e9e	1.0941961
249	0x3e4665fd	0.19374843
250	0x3e03ec55	0.12883122
251	0xbfae8c8e	-1.3636644
252	0xbe437231	-0.1908653
253	0xbf75f339	-0.96074253
254	0x3fbf344d	1.4937836
255	0xbee2e2fa	-0.44313794

fc.weight f4 [3, 16]
0	0xbe38e1fe	-0.18054959
1	0x3e5b37b2	0.21407965
2	0x3d9ad71e	0.075605616
3	0xbe07ca13	-0.13260679
4	0x3e0096a8	0.12557471
5	0xbed7c02e	-0.4213881
6	0xbdadf842	-0.08494617
7	0xbdb5115b	-0.08841201
8	0xbeb7e3f0	-0.3591609
9	0x3ec555a1	0.38541892
10	0x3dcd0f4e	0.10012685
11	0x3e2c8acf	0.16849826
12	0x3db385ef	0.0876578
13	0xbe9bad1e	-0.30405515
14	0xbed452cc	-0.4146942
15	0xbe84ccf5	-0.2593762
16	0xbcd935df	-0.026514946
17	0xbe834abf	-0.25642964
18	0x3e1caa78	0.15299404
19	0x3e6ad595	0.22933038
20	0xbd22c619	-0.039739702
21	0xba686db5	-0.0008866445
22	0x3dcfd78e	0.10148536
23	0xbe659ba9	-0.22422661
24	0x3ea5572a	0.32293063
25	0xbd9a3c5c	-0.07531044
26	0xbdcb9541	-0.09940577
27	0xbf0a209f	-0.53956026
28	0xbe9d9014	-0.30773985
29	0x3ed6ffe1	0.41992095
30	0x3d83cc60	0.06435466
31	0x3f07d31d	0.5305651
32	0xbc1510f2	-0.009098278
33	0x3ddacf45	0.10684065
34	0x3e5db1dc	0.21649879
35	0xbee883b0	-0.4541297
36	0xbe775ab7	-0.24155699
37	0xbde3c795	-0.111220516
38	0x3e98f616	0.2987525
39	0x3e89e796	0.269345
40	0x3dbf6f7a	0.09347434
41	0xbe66584a	-0.22494617
42	0x3efb6c30	0.49105978
43	0x3e45bbab	0.19309871
44	0x3d96573b	0.07340857
45	0xbe4b68ba	-0.19864169
46	0x3e648d53	0.22319536
47	0xbe21e1e7	-0.15808831

fc.bias f4 [3]
0	0x3de6defc	0.11273
1	0x3d1a8c97	0.037731733
2	0xbecbedf6	-0.39829987
